Model
Model: "sequential_13"
________________________________________________________________________________
Layer (type)                        Output Shape                    Param #     
================================================================================
lstm_26 (LSTM)                      (50, 10, 100)                   42400       
________________________________________________________________________________
dropout_26 (Dropout)                (50, 10, 100)                   0           
________________________________________________________________________________
lstm_27 (LSTM)                      (50, 50)                        30200       
________________________________________________________________________________
dropout_27 (Dropout)                (50, 50)                        0           
________________________________________________________________________________
dense_13 (Dense)                    (50, 1)                         51          
================================================================================
Total params: 72,651
Trainable params: 72,651
Non-trainable params: 0
________________________________________________________________________________


