Model
Model: "sequential_1"
________________________________________________________________________________
Layer (type)                        Output Shape                    Param #     
================================================================================
lstm_2 (LSTM)                       (50, 10, 100)                   42400       
________________________________________________________________________________
dropout_2 (Dropout)                 (50, 10, 100)                   0           
________________________________________________________________________________
lstm_3 (LSTM)                       (50, 50)                        30200       
________________________________________________________________________________
dropout_3 (Dropout)                 (50, 50)                        0           
________________________________________________________________________________
dense_1 (Dense)                     (50, 1)                         51          
================================================================================
Total params: 72,651
Trainable params: 72,651
Non-trainable params: 0
________________________________________________________________________________


