Model
Model: "sequential"
________________________________________________________________________________
Layer (type)                        Output Shape                    Param #     
================================================================================
lstm (LSTM)                         (50, 10, 100)                   42400       
________________________________________________________________________________
dropout (Dropout)                   (50, 10, 100)                   0           
________________________________________________________________________________
lstm_1 (LSTM)                       (50, 50)                        30200       
________________________________________________________________________________
dropout_1 (Dropout)                 (50, 50)                        0           
________________________________________________________________________________
dense (Dense)                       (50, 1)                         51          
================================================================================
Total params: 72,651
Trainable params: 72,651
Non-trainable params: 0
________________________________________________________________________________


