Model
Model: "sequential_10"
________________________________________________________________________________
Layer (type)                        Output Shape                    Param #     
================================================================================
lstm_20 (LSTM)                      (50, 10, 100)                   42400       
________________________________________________________________________________
dropout_20 (Dropout)                (50, 10, 100)                   0           
________________________________________________________________________________
lstm_21 (LSTM)                      (50, 50)                        30200       
________________________________________________________________________________
dropout_21 (Dropout)                (50, 50)                        0           
________________________________________________________________________________
dense_10 (Dense)                    (50, 1)                         51          
================================================================================
Total params: 72,651
Trainable params: 72,651
Non-trainable params: 0
________________________________________________________________________________


